…
        kernel_size=3,
        pool_size=2,
        upsample_size=2,
        optimizer="adam",
        loss="binary_crossentropy",
        metrics=[BinaryIoU(threshold=0.5)],
    )
    dense_net.build()
    dense_net.summary()





.. rst-class:: sphx-glr-script-out

 .. code-block:: none

    Model: "AutoencoderROILocator"
    ┏━━━━━━━━━━━━━━━━━━━━━━━━━━━━━━━━━┳━━━━━━━━━━━━━━━━━━━━━━━━┳━━━━━━━━━━━━━━━┓
    ┃ Layer (type)                    ┃ Output Shape           ┃       Param # ┃
    ┡━━━━━━━━━━━━━━━━━━━━━━━━━━━━━━━━━╇━━━━━━━━━━━━━━━━━━━━━━━━╇━━━━━━━━━━━━━━━┩
    │ input (InputLayer)              │ (None, 200, 1)         │             0 │
    ├─────────────────────────────────┼────────────────────────┼───────────────┤
    │ enc_conv0 (Conv1D)              │ (None, 200, 32)        │           128 │
    ├─────────────────────────────────┼────────────────────────┼───────────────┤
    │ enc_drop0 (Dropout)             │ (None, 200, 32)        │             0 │
    ├─────────────────────────────────┼────────────────────────┼───────────────┤
    │ enc_pool0 (MaxPooling1D)        │ (None, 100, 32)        │             0 │
    ├─────────────────────────────────┼────────────────────────┼───────────────┤
    │ enc_conv1 (Conv1D)              │ (None, 100, 64)        │         6,208 │
    ├─────────────────────────────────┼────────────────────────┼───────────────┤
    │ enc_drop1 (Dropout)             │ (None, 100, 64)        │             0 │
    ├─────────────────────────────────┼────────────────────────┼───────────────┤
    │ enc_pool1 (MaxPooling1D)        │ (None, 50, 64)         │             0 │
    ├─────────────────────────────────┼────────────────────────┼───────────────┤
    │ bottleneck_conv (Conv1D)        │ (None, 50, 128)        │        24,704 │
    ├─────────────────────────────────┼────────────────────────┼───────────────┤
    │ bottleneck_drop (Dropout)       │ (None, 50, 128)        │             0 │
    ├─────────────────────────────────┼────────────────────────┼───────────────┤
    │ dec_up0 (UpSampling1D)          │ (None, 100, 128)       │             0 │
    ├─────────────────────────────────┼────────────────────────┼───────────────┤
    │ dec_conv0 (Conv1D)              │ (None, 100, 64)        │        24,640 │
    ├─────────────────────────────────┼────────────────────────┼───────────────┤
    │ dec_up1 (UpSampling1D)          │ (None, 200, 64)        │             0 │
    ├─────────────────────────────────┼────────────────────────┼───────────────┤
    │ dec_conv1 (Conv1D)              │ (None, 200, 32)        │         6,176 │
    ├─────────────────────────────────┼────────────────────────┼───────────────┤
    │ ROI (Conv1D)                    │ (None, 200, 1)         │            33 │
    └─────────────────────────────────┴────────────────────────┴───────────────┘
     Total params: 61,889 (241.75 KB)
     Trainable params: 61,889 (241.75 KB)
     Non-trainable params: 0 (0.00 B)




.. GENERATED FROM PYTHON SOURCE LINES 76-78

Train the classifier
--------------------

.. GENERATED FROM PYTHON SOURCE LINES 78-86

.. code-block:: Python

    history = dense_net.fit(
        dataset.signals,
…
