…
        sequence_length=SEQUENCE_LENGTH,
        num_filters=64,
        num_dilation_layers=6,
        kernel_size=3,
        optimizer='adam',
        loss='binary_crossentropy',
        metrics=['accuracy']
    )
    dense_net.build()
    dense_net.summary()





.. rst-class:: sphx-glr-script-out

 .. code-block:: none

    Model: "WaveNetDetector"
    ┏━━━━━━━━━━━━━━━━━━━━━┳━━━━━━━━━━━━━━━━━━━┳━━━━━━━━━━━━┳━━━━━━━━━━━━━━━━━━━┓
    ┃ Layer (type)        ┃ Output Shape      ┃    Param # ┃ Connected to      ┃
    ┡━━━━━━━━━━━━━━━━━━━━━╇━━━━━━━━━━━━━━━━━━━╇━━━━━━━━━━━━╇━━━━━━━━━━━━━━━━━━━┩
    │ input (InputLayer)  │ (None, 200, 1)    │          0 │ -                 │
    ├─────────────────────┼───────────────────┼────────────┼───────────────────┤
    │ input_projection    │ (None, 200, 64)   │        128 │ input[0][0]       │
    │ (Conv1D)            │                   │            │                   │
    ├─────────────────────┼───────────────────┼────────────┼───────────────────┤
    │ dilated_conv_0      │ (None, 200, 64)   │     12,352 │ input_projection… │
    │ (Conv1D)            │                   │            │                   │
    ├─────────────────────┼───────────────────┼────────────┼───────────────────┤
    │ res_0 (Conv1D)      │ (None, 200, 64)   │      4,160 │ dilated_conv_0[0… │
    ├─────────────────────┼───────────────────┼────────────┼───────────────────┤
    │ residual_add_0      │ (None, 200, 64)   │          0 │ input_projection… │
    │ (Add)               │                   │            │ res_0[0][0]       │
    ├─────────────────────┼───────────────────┼────────────┼───────────────────┤
    │ dilated_conv_1      │ (None, 200, 64)   │     12,352 │ residual_add_0[0… │
    │ (Conv1D)            │                   │            │                   │
    ├─────────────────────┼───────────────────┼────────────┼───────────────────┤
    │ res_1 (Conv1D)      │ (None, 200, 64)   │      4,160 │ dilated_conv_1[0… │
    ├─────────────────────┼───────────────────┼────────────┼───────────────────┤
    │ residual_add_1      │ (None, 200, 64)   │          0 │ residual_add_0[0… │
    │ (Add)               │                   │            │ res_1[0][0]       │
    ├─────────────────────┼───────────────────┼────────────┼───────────────────┤
    │ dilated_conv_2      │ (None, 200, 64)   │     12,352 │ residual_add_1[0… │
    │ (Conv1D)            │                   │            │                   │
    ├─────────────────────┼───────────────────┼────────────┼───────────────────┤
    │ res_2 (Conv1D)      │ (None, 200, 64)   │      4,160 │ dilated_conv_2[0… │
    ├─────────────────────┼───────────────────┼────────────┼───────────────────┤
    │ residual_add_2      │ (None, 200, 64)   │          0 │ residual_add_1[0… │
    │ (Add)               │                   │            │ res_2[0][0]       │
    ├─────────────────────┼───────────────────┼────────────┼───────────────────┤
    │ dilated_conv_3      │ (None, 200, 64)   │     12,352 │ residual_add_2[0… │
    │ (Conv1D)            │                   │            │                   │
    ├─────────────────────┼───────────────────┼────────────┼───────────────────┤
    │ res_3 (Conv1D)      │ (None, 200, 64)   │      4,160 │ dilated_conv_3[0… │
    ├─────────────────────┼───────────────────┼────────────┼───────────────────┤
    │ residual_add_3      │ (None, 200, 64)   │          0 │ residual_add_2[0… │
    │ (Add)               │                   │            │ res_3[0][0]       │
    ├─────────────────────┼───────────────────┼────────────┼───────────────────┤
    │ dilated_conv_4      │ (None, 200, 64)   │     12,352 │ residual_add_3[0… │
    │ (Conv1D)            │                   │            │                   │
    ├─────────────────────┼───────────────────┼────────────┼───────────────────┤
    │ res_4 (Conv1D)      │ (None, 200, 64)   │      4,160 │ dilated_conv_4[0… │
    ├─────────────────────┼───────────────────┼────────────┼───────────────────┤
    │ residual_add_4      │ (None, 200, 64)   │          0 │ residual_add_3[0… │
    │ (Add)               │                   │            │ res_4[0][0]       │
    ├─────────────────────┼───────────────────┼────────────┼───────────────────┤
    │ dilated_conv_5      │ (None, 200, 64)   │     12,352 │ residual_add_4[0… │
    │ (Conv1D)            │                   │            │                   │
    ├─────────────────────┼───────────────────┼────────────┼───────────────────┤
    │ res_5 (Conv1D)      │ (None, 200, 64)   │      4,160 │ dilated_conv_5[0… │
    ├─────────────────────┼───────────────────┼────────────┼───────────────────┤
    │ residual_add_5      │ (None, 200, 64)   │          0 │ residual_add_4[0… │
    │ (Add)               │                   │            │ res_5[0][0]       │
    ├─────────────────────┼───────────────────┼────────────┼───────────────────┤
    │ skip_0 (Conv1D)     │ (None, 200, 64)   │      4,160 │ residual_add_0[0… │
    ├─────────────────────┼───────────────────┼────────────┼───────────────────┤
    │ skip_1 (Conv1D)     │ (None, 200, 64)   │      4,160 │ residual_add_1[0… │
    ├─────────────────────┼───────────────────┼────────────┼───────────────────┤
    │ skip_2 (Conv1D)     │ (None, 200, 64)   │      4,160 │ residual_add_2[0… │
    ├─────────────────────┼───────────────────┼────────────┼───────────────────┤
    │ skip_3 (Conv1D)     │ (None, 200, 64)   │      4,160 │ residual_add_3[0… │
    ├─────────────────────┼───────────────────┼────────────┼───────────────────┤
    │ skip_4 (Conv1D)     │ (None, 200, 64)   │      4,160 │ residual_add_4[0… │
    ├─────────────────────┼───────────────────┼────────────┼───────────────────┤
    │ skip_5 (Conv1D)     │ (None, 200, 64)   │      4,160 │ residual_add_5[0… │
    ├─────────────────────┼───────────────────┼────────────┼───────────────────┤
    │ skip_add (Add)      │ (None, 200, 64)   │          0 │ skip_0[0][0],     │
    │                     │                   │            │ skip_1[0][0],     │
    │                     │                   │            │ skip_2[0][0],     │
    │                     │                   │            │ skip_3[0][0],     │
    │                     │                   │            │ skip_4[0][0],     │
    │                     │                   │            │ skip_5[0][0]      │
    ├─────────────────────┼───────────────────┼────────────┼───────────────────┤
    │ post_relu (ReLU)    │ (None, 200, 64)   │          0 │ skip_add[0][0]    │
    ├─────────────────────┼───────────────────┼────────────┼───────────────────┤
    │ output (Conv1D)     │ (None, 200, 1)    │         65 │ post_relu[0][0]   │
    └─────────────────────┴───────────────────┴────────────┴───────────────────┘
     Total params: 124,225 (485.25 KB)
     Trainable params: 124,225 (485.25 KB)
     Non-trainable params: 0 (0.00 B)




.. GENERATED FROM PYTHON SOURCE LINES 71-73

Train the classifier
--------------------

.. GENERATED FROM PYTHON SOURCE LINES 73-81

.. code-block:: Python

    history = dense_net.fit(
…
